nc_diversity_attacks/pretrained_models/mnist/model_FCNet5_2019-10-01 19.54.00.177928_97.96.pth (torch_old, 976273 bytes, 10 tensors)

dens1.weight f4 [256, 784]
0.030940007 0.02664657 0.030493546 -0.027251929 -0.02472892 -0.015501194 -0.028266396 -0.016459832
-0.010029292 0.029671673 0.02101864 -0.010909421 -0.01334089 0.039801646 0.03668092 0.011389557
0.0054308474 -0.017269915 -0.010887049 -0.018498821 0.011111703 0.019701451 0.026109233 0.018953938
0.0045227744 0.021194432 0.009891763 0.0044126585 0.02475081 -0.0062187407 -0.024223631 0.009462684
-0.031068709 -0.021731054 0.026688103 -0.022178004 -0.027837537 0.0010568502 -0.040164262 0.009152917
-0.015400748 -0.07952728 -0.12162085 0.054531675 0.100035235 0.107090764 -0.041359756 -0.09999827
-0.060161613 0.060620844 -0.0009719469 -0.02444647 0.023325648 -0.0042281635 0.029453363 0.017218888
0.011910684 -0.02139172 0.01714003 0.11447955 0.05757227 -0.03990111 -0.04331672 0.015604492
0.030584304 0.0038642138 0.033522956 0.06860852 0.009244445 0.011845894 -0.016274732 0.053805128
0.13961469 -0.026816024 9.938564e-05 -0.016720498 -0.07011137 -0.023139047 -0.09309864 -0.057001013
0.01327661 -0.011615885 0.0016359314 0.011577044 -0.009630667 0.012310252 0.036498867 0.09734085
0.0071280207 0.09921072 0.041787438 -0.03182434 -0.043132722 0.038238093 0.098879375 0.18080054
0.14432946 0.09562154 0.046365578 0.03457125 0.18740898 0.07819793 -0.021265553 -0.124973394
-0.1577263 -0.07928035 -0.116232015 -0.08233303 0.043396138 0.04667232 0.014435101 -0.005101459
0.016846098 -0.043009035 0.05233472 0.06807908 0.080904916 0.01352851 -0.019621504 -0.059979256
-0.11355889 0.018075448 -0.026720926 0.09206301 0.13325492 0.07814711 0.053224098 0.043781307
0.1340097 0.12493103 0.08693603 0.020586487 0.006344506 -0.14871716 -0.1850918 -0.24647121
-0.07803032 0.010127189 -0.05000015 -0.0030930378 -0.0021658652 -0.02672637 0.017044552 -0.02745431
-0.095675856 -0.09315288 -0.046128783 -0.0024801956 -0.031360112 -0.10753877 -0.04564626 0.09384309
0.11097959 0.11012021 0.042593252 0.101751454 0.092110336 0.07372057 0.0042241365 0.006956471
0.11624217 0.11150527 0.07075327 -0.120056406 -0.12681104 -0.013711651 -0.108578406 0.0043557286
-0.013378093 0.0020608194 -0.047665827 0.065068156 -0.027801432 -0.06535553 -0.12570833 -0.14134815
-0.1967898 -0.1382093 0.041205827 0.05024496 0.12854373 0.032746147 -0.017872833 0.02317544
-0.019574534 -0.01326152 -0.05438478 -0.10684265 -0.029921055 0.065344825 0.08071443 -0.060439523
-0.016966404 0.09338386 -0.15209724 -0.02425046 -0.028725918 -0.014187144 0.008314706 0.024408575
0.059600227 -0.060034342 -0.12766887 -0.15430379 -0.17363538 -0.013748851 0.030274283 0.13245586
0.07701951 0.020778049 -0.08817159 -0.09258416 -0.12081836 0.009439265 0.045789033 0.047134716
-0.0053334874 0.09948805 0.1549291 0.12521656 0.20980047 0.18840551 -0.1281487 -0.010947847
0.011011861 0.046552792 0.019467307 0.099273056 0.11262299 -0.1232615 -0.034536824 0.05804109
-0.038433395 -0.024978342 -0.019763695 0.0063276454 -0.041066222 -0.11603581 0.0042211753 -0.031226292
-0.107009724 -0.01827273 0.024162665 0.09878589 -0.03345345 0.0037083493 0.14916609 0.17973958
0.054547247 -0.07889982 -0.175365 -0.075839944 -0.015386969 0.0132315345 0.028558802 0.1275279
00000000: e675 fd3c e849 da3c 9acd f93c 703f dfbc
00000010: 4e94 cabc b8f8 7dbc ee8e e7bc c5d6 86bc
00000020: e651 24bc 0212 f33c 482f ac3c 6ebd 32bc
00000030: c093 5abc 0d07 233d bb3e 163d 449b 3a3c
00000040: 40f5 b13b a379 8dbc 985f 32bc d78a 97bc
00000050: dc0d 363c f064 a13c 08e3 d53c 4a45 9b3c
00000060: c833 943b f29f ad3c 1011 223c 1098 903b
00000070: 36c2 ca3c 94c6 cbbb a370 c6bc 6009 1b3c
00000080: ce83 febc 5305 b2bc 02a1 da3c a5ae b5bc
00000090: 8c0b e4bc 0286 8a3a 4883 24bd 1ef6 153c
000000a0: 6b53 7cbc 33df a2bd 5a14 f9bd 9b5c 5f3d
000000b0: 46df cc3d 6752 db3d d968 29bd e5cb ccbd
000000c0: 066c 76bd 904d 783d 41ca 7eba f743 c8bc
000000d0: 6e15 bf3c 688c 8abb 2e48 f13c a00e 8d3c
000000e0: 0825 433c b03d afbc 4069 8c3c 4174 ea3d
000000f0: e7d0 6b3d 596f 23bd df6c 31bd fca9 7f3c
00000100: ef8b fa3c c03e 7d3b 5e4f 093d a082 8c3d
00000110: 0376 173c 4815 423c 9652 85bc c462 5c3d
00000120: 27f7 0e3e 47ad dbbc 426d d038 6df9 88bc
00000130: 8d96 8fbd 198e bdbc 80aa bebd e579 69bd
00000140: 2386 593c 8e50 3ebc c06c d63a a4ad 3d3c
00000150: f2c9 1dbc f0b0 493c d67f 153d a45a c73d
00000160: 2c92 e93b fd2e cb3d 4e29 2b3d 3d5a 02bd
00000170: f0ab 30bd 8c9f 1c3d 4581 ca3d c723 393e
00000180: 1acb 133e 3ad5 c33d d5e9 3d3d 959a 0d3d
00000190: 24e8 3f3e 3c26 a03d 1935 aebc 0df2 ffbd
000001a0: 0183 21be bc5d a2bd 0d0b eebd 389e a8bd
000001b0: 26c0 313d 7a2b 3f3d 3481 6c3c 242a a7bb
000001c0: d400 8a3c 3e2a 30bd ee5c 563d 0b6d 8b3d
000001d0: 7ab1 a53d afa6 5d3c 47bd a0bc cfac 75bd
000001e0: 9091 e8bd f612 943c d8e5 dabc 888b bc3d
000001f0: fa73 083e 980b a03d 8301 5a3d 0754 333d
00000200: d739 093e d7db ff3d 840b b23d fea4 a83c
00000210: 93e5 cf3b 5049 18be b488 3dbe f362 7cbe
00000220: 5cce 9fbd 82ec 253c f5cc 4cbd 90b4 4abb
00000230: 30f1 0dbb 43f1 dabc 04a1 8b3c dce7 e0bc
00000240: b4f1 c3bd f0c6 bebd 89f1 3cbd c78a 22bb
00000250: 7673 00bd 493d dcbd 93f7 3abd ce30 c03d
00000260: 4449 e33d b486 e13d 4376 2e3d 1163 d03d
00000270: 58a4 bc3d cffa 963d a06a 8a3b 1cf3 e33b
00000280: 6010 ee3d e05c e43d 17e7 903d 22e0 f5bd
00000290: c1da 01be d5a6 60bc 5b5e debd 80ba 8e3b
000002a0: ca2f 5bbc d00e 073b 3e3d 43bd 7442 853d
000002b0: d4bf e3bc 1fd9 85bd afb9 00be 92bd 10be
000002c0: 4483 49be bd86 0dbe 71c7 283d a9cd 4d3d
000002d0: f8a0 033e d320 063d 0c6a 92bc 6cda bd3c
000002e0: c65a a0bc d946 59bc 93c2 5ebd 52d0 dabd
000002f0: 001d f5bc 82d3 853d 9b4d a53d 6f8f 77bd
00000300: 21fd 8abc 0a40 bf3d 61bf 1bbe e7a8 c6bc
00000310: 9e52 ebbc 3271 68bc 683a 083c 7ef4 c73c
00000320: 5e1f 743d 92e6 75bd a1bb 02be d001 1ebe
00000330: 79cd 31be dc42 61bc c601 f83c 82a2 073e
00000340: 68bc 9d3d ba36 aa3c 4e93 b4bd c49c bdbd
00000350: 9e6f f7bd 26a7 1a3c 488d 3b3d 5510 413d
00000360: 89c4 aebb 64c0 cb3d bca5 1e3e c538 003e
00000370: efd5 563e 60ed 403e 6a39 03be 995e 33bc
00000380: 186b 343c 24ae 3e3d e779 9f3c ac4f cb3d
00000390: e2a6 e63d 8670 fcbd 7c76 0dbd 7ebc 6d3d
000003a0: 566c 1dbd 619f ccbc 79e7 a1bc 2358 cf3b
000003b0: 0e35 28bd 2fa4 edbd c951 8a3b 48ce ffbc
000003c0: ea27 dbbd b1b0 95bc c8f0 c53c 4250 ca3d
000003d0: 7c06 09bd c707 733b ffbe 183e a70d 383e
000003e0: ef6c 5f3d 3b96 a1bd e292 33be f951 9bbd
000003f0: a019 7cbc 14c9 583c 26f4 e93c ac96 023e

dens1.bias f4 [256]
-0.007339828 -0.034084313 0.042751078 -0.02841373 -0.0075173527 0.016847255 0.05872589 -0.13633916
0.090124466 -0.0903546 0.008231351 -0.011369039 -0.008346753 -0.07813625 -0.007525008 0.03333578
-0.075997226 -0.003351299 -0.097635776 -0.066517465 0.046130028 -0.09015682 0.086164914 -0.03707719
0.059870522 -0.060093228 -0.004415482 0.07455005 0.07351678 -0.015713293 -0.049358085 0.08336619
0.008215444 0.08621325 -0.027565237 -0.07571647 0.034634043 0.08247937 0.004558643 0.09295749
-0.088280074 -0.037542928 -0.027005943 0.0026529832 -0.040864177 0.009363992 0.013659078 -0.032537807
0.0073302067 0.10446139 -0.07160698 -0.115407646 0.015832828 0.07063184 -0.036159083 -0.009861476
-0.01883634 -0.031315204 0.017858649 -0.043699026 0.0021456014 0.068386234 0.002946393 0.123716295
0.0007155838 0.03209215 -0.009395166 -0.07403061 0.005647346 -0.10738136 -0.024813185 -0.007445387
-0.108630046 0.034095984 -0.03146241 -0.015495629 -0.04774389 0.02674022 -0.055421483 -0.12283807
-0.04563622 0.012255666 0.028088255 -0.034168135 -0.04747652 0.021534365 0.087172486 0.017154047
-0.06862649 -0.022332342 -0.036802538 -0.009547316 0.010946984 -0.015513748 -0.03230034 -0.056780767
0.00061841606 -0.03070255 -0.09162789 -0.070377976 0.056997355 -0.027164832 -0.019290356 0.01816041
0.022427568 -0.014797309 -0.0709817 0.013960892 0.07089709 0.013470971 0.045862596 -0.068632595
-0.06720959 0.024896389 -0.051878195 -0.049752258 -0.036453266 -0.05902573 -0.0429337 0.026069546
-0.07258615 0.06569823 0.068491235 0.040792465 -0.04950048 -0.05946022 -0.13567789 0.06790827
-0.054355603 -0.03888622 -0.014335443 0.13863812 -0.024554158 0.025936538 -0.042207293 -0.06377754
0.1080838 -0.077630304 0.121929675 -0.058084134 0.03850603 0.05600773 0.050143052 0.006812374
-0.03075336 0.014220854 0.065373115 0.033297155 -0.029499115 0.075849704 -0.009120963 -0.07203103
-0.12697074 0.044777684 0.007730951 -0.0077801025 -0.1324422 -0.052705366 0.021890376 -0.041513965
-0.09185108 -0.10818769 0.09914133 -0.010110208 0.009458691 -0.03901314 -0.008023969 0.12889378
-0.063168034 -0.03826159 -0.010880602 0.009589247 -0.0779273 0.09159368 -0.0013508104 0.059043635
-0.09726741 -0.04404207 -0.053195484 -0.056724627 -0.003091034 -0.0046513216 -0.13512202 -0.0039339475
-0.016382314 0.030739479 -0.05253967 0.030353926 -0.17077594 0.0033374352 0.043180086 -0.0760756
-0.024683366 -0.025755698 -0.04571296 -0.05192634 0.16882247 0.06276021 0.051815383 -0.05196629
0.03011814 -0.019688103 -0.025241327 -0.041234795 0.11698552 -0.08253562 0.042156212 0.022473615
0.014398979 0.030231059 0.07030741 -0.0043457802 -0.08801894 -0.09473855 -0.026635326 -0.020922523
-0.011696221 -0.027923126 0.0026703316 -0.0700466 -0.061308067 -0.012183543 -0.019460656 -0.018798374
0.014766908 -0.013227238 -0.012086469 -0.078908 0.048637334 -0.054385435 0.03950725 0.18262321
0.004094809 0.050767895 -0.022267051 -0.073504396 0.05555714 0.08760781 -0.122753814 0.08708881
-0.068994254 0.0055117034 -0.06569855 -0.019008549 0.07256182 0.09359214 -0.014086446 0.019592017
-0.043788712 0.005848547 0.05120993 -0.16035041 -0.035624057 -0.0842633 -0.01998698 -0.034475975
00000000: f182 f0bb fe9b 0bbd c11b 2f3d e9c3 e8bc
00000010: 2054 f6bb 4103 8a3c 8f8a 703d 7e9c 0bbe
00000020: 2d93 b83d d50b b9bd cadc 063c 3545 3abc
00000030: d2c0 08bc e605 a0bd 5894 f6bb 198b 083d
00000040: 6fa4 9bbd 78a1 5bbb 44f5 c7bd 4f3a 88bd
00000050: d7f2 3c3d 24a4 b8bd 3b77 b03d 40de 17bd
00000060: cb3a 753d 5124 76bd bfaf 90bb b2ad 983d
00000070: f78f 963d 2ab9 80bc b42b 4abd e5bb aa3d
00000080: 129a 063c 9390 b03d 7ed0 e1bc 3d11 9bbd
00000090: 6ddc 0d3d f2ea a83d ab60 953b 7f60 be3d
000000a0: 2fcc b4bd 9dc6 19bd 913b ddbc acdd 2d3b
000000b0: 3261 27bd 6e6b 193c 53ca 5f3c 5d46 05bd
000000c0: 3b32 f03b daef d53d aea6 92bd d85a ecbd
000000d0: d9b3 813c 6da7 903d 8c1b 14bd 0792 21bc
000000e0: ab4e 9abc 5f44 00bd 4d4c 923c c0fd 32bd
000000f0: 389d 0c3b 150e 8c3d 4618 413b f85e fd3d
00000100: 0496 3b3a 0f73 033d 2fee 19bc 5c9d 97bd
00000110: 5f0d b93b c2ea dbbd 0545 cbbc 6ff8 f3bb
00000120: 6e79 debd 3ba8 0b3d bade 00bd 61e1 7dbc
00000130: 198f 43bd 4e0e db3c a301 63bd 8792 fbbd
00000140: 0ced 3abd fdcb 483c 5719 e63c e3f3 0bbd
00000150: bd76 42bd d668 b03c 7d87 b23d a586 8c3c
00000160: 0c8c 8cbd 51f2 b6bc 42be 16bd 586c 1cbc
00000170: fb5a 333c 602d 7ebc 5c4d 04bd f392 68bd
00000180: 331d 223a ea83 fbbc 67a7 bbbd 5422 90bd
00000190: 0f76 693d c888 debc cf06 9ebc 24c5 943c
000001a0: 05ba b73c 6a70 72bc db5e 91bd 3abc 643c
000001b0: 7e32 913d 59b5 5c3c 6bda 3b3d 3f8f 8cbd
000001c0: 2ea5 89bd 83f3 cb3c 3b7e 54bd 06c9 4bbd
000001d0: 0550 15bd f7c4 71bd 3fdb 2fbd cd8f d53c
000001e0: 0ca8 94bd cb8c 863d 2245 8c3d 0016 273d
000001f0: 04c1 4abd 8f8c 73bd 25ef 0abe 7e13 8b3d
00000200: fba3 5ebd 2847 1fbd 35df 6abc 27f7 0d3e
00000210: cd25 c9bc dd78 d43c 8ee1 2cbd cd9d 82bd
00000220: 0a5b dd3d a3fc 9ebd 44b6 f93d a1e9 6dbd
00000230: 80b8 1d3d 5d68 653d cd62 4d3d 563a df3b
00000240: 78ee fbbc 96fe 683c 57e2 853d 9962 083d
00000250: 21a8 f1bc 1757 9b3d 1770 15bc 0185 93bd
00000260: 9e04 02be ce68 373d eb53 fd3b 3bf0 febb
00000270: ee9e 07be 95e1 57bd 7253 b33c 8c0a 2abd
00000280: 6b1c bcbd 8291 ddbd 9c0a cb3d 49a5 25bc
00000290: a0f8 1a3c 3ecc 1fbd f776 03bc bbfc 033e
000002a0: 3e5e 81bd 2fb8 1cbd 8d44 32bc 381c 1d3c
000002b0: 5998 9fbd 7895 bb3d ad0d b1ba bdd7 713d
000002c0: 2334 c7bd 7565 34bd 82e3 59bd 1558 68bd
000002d0: f292 4abb 1d6a 98bb 6d5d 0abe 58e8 80bb
000002e0: 3434 86bc 5cd1 fb3c d633 57bd cca8 f83c
000002f0: e3df 2ebe dfb8 5a3b 9add 303d 86cd 9bbd
00000300: c534 cabc 9dfd d2bc 833d 3bbd b7b0 54bd
00000310: ccdf 2c3e 6d88 803d 5e3c 543d 9bda 54bd
00000320: 51ba f63c f248 a1bc e6c6 cebc d1e5 28bd
00000330: 1b96 ef3d 6f08 a9bd feab 2c3d 961a b83c
00000340: b2e9 6b3c 20a7 f73c 55fd 8f3d 0c67 8ebb
00000350: 4643 b4bd 4906 c2bd 5432 dabc b665 abbc
00000360: 82a1 3fbc 0abf e4bc bb00 2f3b 9874 8fbd
00000370: 2b1e 7bbd 7c9d 47bc f46b 9fbc 0cff 99bc
00000380: e7f0 713c 0fb7 58bc 5306 46bc 849a a1bd
00000390: f137 473d 43c3 5ebd 5bd2 213d 9401 3b3e
000003a0: bf2d 863b fff1 4f3d 6469 b6bc 7989 96bd
000003b0: e28f 633d b96b b33d 5a66 fbbd 9e5b b23d
000003c0: dc4c 8dbd 859b b43b f68c 86bd d1b7 9bbc
000003d0: 4b9b 943d 3cad bf3d d6ca 66bc 707f a03c
000003e0: cb5b 33bd 2ba5 bf3b 81c1 513d e632 24be
000003f0: 88ea 11bd 3d92 acbd bcbb a3bc ae36 0dbd

dens2.weight f4 [128, 256]
-0.039569676 -0.07022191 0.10228892 0.055788416 0.0057800203 -0.046408877 0.19675021 0.10604059
-0.115771845 -0.05283055 -0.34752852 -0.09443643 0.07249876 -0.14755331 0.024480365 0.05153194
-0.054926142 -0.024742698 -0.022966545 0.042876516 0.017006956 -0.094239205 0.1572121 0.008675899
-0.18816099 -0.034524873 -0.15681632 0.06590823 0.17720068 -0.10697058 -0.19998202 -0.04102538
-0.018779911 0.022608686 0.22744109 -0.07842808 0.0799197 0.034009367 0.088182546 0.042949535
-0.043425135 -0.0051272754 0.0037796632 0.019329986 0.03605354 0.11727721 -0.06875058 -0.14275837
-0.054415658 0.050141316 -0.18951268 0.0057282313 -0.22605465 -0.404245 0.16069852 -0.00025283318
-0.057672963 -0.06444327 -0.32487822 0.043144964 -0.077673025 0.13900055 -0.072900236 0.12110616
-0.1670482 0.13419373 0.002417858 -0.16778465 0.05446668 0.028001124 -0.0801837 -0.064063616
0.12768452 0.12631267 -0.05392668 0.057631124 -0.040733684 -0.20347029 0.03893976 -0.069260105
-0.013577251 -0.10510041 -0.033271205 0.062011987 -0.10986043 -0.008940197 -0.30319375 -0.14254557
0.0211829 0.16925114 0.015246158 0.1524885 -0.0018195334 -0.024391467 0.2614788 0.2363718
-0.10819516 0.03578047 0.099025875 -0.07487609 0.05143868 -0.19964403 0.08452996 0.16015042
0.15258199 -0.15983595 -0.0055177817 -0.27894878 0.07135475 0.00677896 0.15782328 -0.10387312
0.01680451 -0.04575011 -0.19418387 -0.052787136 0.017687095 0.0645082 -0.049752638 -0.26949024
0.17396502 0.024411285 0.068392634 -0.023281587 0.33592275 0.06006255 -0.05393296 -0.053928472
-0.15017839 -0.19027649 -0.033201814 0.06870281 -0.058193047 0.1664263 0.1302559 0.08982704
0.105679855 -0.0122318985 0.07770601 -0.14420445 -0.2669965 0.10546679 -0.018181635 -0.22229162
0.052017048 -0.20745784 0.06315191 -0.012641712 -0.046234127 -0.2562188 0.13706379 -0.16590676
-0.06443782 -0.12785922 0.083563395 0.060852636 -0.051142186 -0.053667884 0.008425528 -0.033214033
-0.09610847 -0.107189134 0.18887888 0.03088517 -0.17515564 -0.120140664 -0.16177969 0.12304673
-0.35662028 -0.1556092 0.042114288 -0.023658007 0.022894047 -0.042274293 -0.102922894 0.033921607
-0.10862314 0.04161959 -0.0005881209 -0.0043442645 0.172103 -0.10902018 -0.0545818 -0.027006395
-0.19599977 -0.015105643 0.18323429 -0.04818663 -0.14049523 0.04242951 -0.06058656 0.053435966
0.110955045 -0.15057136 0.13265318 0.07219694 -0.18150134 -0.2134324 0.013474717 0.0059224614
-0.24264066 -0.1265699 -0.14027141 -0.13756607 0.068526596 -0.15497908 0.024418877 0.119581945
-0.040675268 -0.07254565 -0.16600788 -0.10293886 0.09522109 -0.1327951 -0.07042225 -0.063843206
0.30970404 0.0046643843 0.08951221 -0.12762216 0.23702823 0.23208858 -0.08692012 0.001753772
-0.031214809 -0.04972026 -0.16951849 -0.24729766 0.118112445 -0.07939296 -0.002623902 -0.25311384
0.0395695 0.037175152 -0.023738958 0.16853146 -0.14630115 -0.010219309 -0.018674815 0.1304451
-0.09165248 -0.17440575 0.11013629 -0.18852744 -0.36007717 -0.18057217 -0.10343098 0.034015812
-0.049149934 0.14425853 -0.12164627 -0.09171388 0.011938807 -0.16811337 0.14335056 0.058581214
00000000: d013 22bd 81d0 8fbd da7c d13d 6582 643d
00000010: 5366 bd3b 3c17 3ebd e378 493e cf2b d93d
00000020: ca19 edbd d964 58bd 42ef b1be e367 c1bd
00000030: 3b7a 943d 3718 17be 0c8b c83c 2813 533d
00000040: 3cfa 60bd 33b1 cabc 5624 bcbc 499f 2f3d
00000050: 2c52 8b3c 7c00 c1bd 35fc 203e 5c25 0e3c
00000060: 46ad 40be f469 0dbd 7594 20be e5fa 863d
00000070: 1874 353e 6413 dbbd 16c8 4cbe 3b0a 28bd
00000080: 54d8 99bc da35 b93c 51e6 683e e79e a0bd
00000090: f1ac a33d 684d 0b3d 0d99 b43d daeb 2f3d
000000a0: 8ede 31bd b402 a8bb 3ab4 773b eb59 9e3c
000000b0: e0ac 133d 092f f03d 1bcd 8cbd 402f 12be
000000c0: f4e2 5ebd fb60 4d3d 9d0f 42be e3b3 bb3b
000000d0: df7a 67be 33f9 cebe 278e 243e b28e 84b9
000000e0: 7c3a 6cbd d5fa 83bd 7056 a6be c6b8 303d
000000f0: 0913 9fbd 2956 0e3e b84c 95bd 8206 f83d
00000100: af0e 2bbe 156a 093e ed74 1e3b bdcf 2bbe
00000110: 7418 5f3d 9d62 e53c 5a37 a4bd c933 83bd
00000120: bbbf 023e 1c58 013e 39e2 5cbd 9d0e 6c3d
00000130: 5dd8 26bd 845a 50be 4c7f 1f3d 3ed8 8dbd
00000140: 1e73 5ebc e23e d7bd 6347 08bd 4800 7e3d
00000150: 81fe e0bd e779 12bc 363c 9bbe 77f7 11be
00000160: c387 ad3c 2c50 2d3e 05cb 793c f225 1c3e
00000170: 697d eeba 9dd0 c7bc 8de0 853e 730b 723e
00000180: 6d95 ddbd 8b8e 123d 14ce ca3d a358 99bd
00000190: 5eb1 523d 7c6f 4cbe 0b1e ad3d 79fe 233e
000001a0: 743e 1c3e 09ac 23be 82ce b4bb 60d2 8ebe
000001b0: 7022 923d 0a22 de3b 6d9c 213e 6ebb d4bd
000001c0: 9da9 893c 7864 3bbd 23d8 46be 5337 58bd
000001d0: 87e4 903c e01c 843d 6cc9 4bbd a0fa 89be
000001e0: e323 323e 2dfa c73c 7011 8c3d 07b9 bebc
000001f0: 11fe ab3e 2604 763d cfe8 5cbd 1ae4 5cbd
00000200: 5dc8 19be d7d7 42be a0fe 07bd 0fb4 8c3d
00000210: d55b 6ebd a86b 2a3e cd61 053e 3df7 b73d
00000220: ae6e d83d 4d68 48bc 5424 9f3d 55aa 13be
00000230: c4b3 88be f9fe d73d a7f1 94bc 6aa0 63be
00000240: d40f 553d d46f 54be ca55 813d 2f1f 4fbc
00000250: ff5f 3dbd 1c2f 83be 735a 0c3e 76e3 29be
00000260: faf7 83bd 87ed 02be 4923 ab3d 9d40 793d
00000270: 787a 51bd dbd2 5bbd 3a0b 0a3c 700b 08bd
00000280: 84d4 c4bd fa85 dbbd 7769 413e e502 fd3c
00000290: 005c 33be 4f0c f6bd 93a9 25be edff fb3d
000002a0: ef96 b6be 0558 1fbe 0880 2c3d 70ce c1bc
000002b0: 4c8c bb3c cf27 2dbd 3dc9 d2bd 62f1 0a3d
000002c0: cf75 debd 4e79 2a3d 202c 1aba 555a 8ebb
000002d0: c53b 303e f945 dfbd 2a91 5fbd 843c ddbc
000002e0: 2ab4 48be a97d 77bc c5a1 3b3e 585f 45bd
000002f0: fbdd 0fbe 91ca 2d3d 9d29 78bd acdf 5a3d
00000300: 663c e33d 612f 1abe 3cd6 073e fddb 933d
00000310: 7ddb 39be 068e 5abe 0fc5 5c3c 3511 c23b
00000320: cb76 78be 8a9b 01be 4fa3 0fbe 1fde 0cbe
00000330: ac57 8c3d d6b2 1ebe 190a c83c 61e7 f43d
00000340: 1c9b 26bd d092 94bd f8fd 29be 9cd1 d2bd
00000350: 4603 c33d 70fb 07be 8a39 90bd 3ac0 82bd
00000360: 8791 9e3e b1d7 983b 2d52 b73d 62af 02be
00000370: 87b7 723e a1a8 6d3e 2d03 b2bd d3de e53a
00000380: 33b6 ffbc 79a7 4bbd 4196 2dbe 993b 7dbe
00000390: f0e4 f13d c798 a2bd c5f5 2bbb 2398 81be
000003a0: a113 223d f944 183d 3478 c2bc 8393 2c3e
000003b0: f8cf 15be e36e 27bc edfb 98bc 6693 053e
000003c0: 4cb4 bbbd 6c97 32be 238f e13d 560d 41be
000003d0: 095c b8be e9e7 38be 9fd3 d3bd 2a54 0b3d
000003e0: 7151 49bd 82b8 133e ae21 f9bd 7dd4 bbbd
000003f0: fc9a 433c e925 2cbe 7dca 123e dbf2 6f3d

dens2.bias f4 [128]
-0.1397887 0.029590897 -0.1927272 -0.0899663 -0.108634174 -0.04078447 -0.06388579 0.025532214
-0.008090444 -0.06113052 -0.14223468 -0.015933076 -0.17454432 0.066154726 -0.10925657 -0.0057243467
-0.13941275 -0.10764093 0.26511127 -0.16031371 -0.0020933282 -0.14042696 -0.08039051 0.21310423
-0.13609792 -0.048666973 0.011366299 -0.067774676 -0.10581984 -0.109451324 0.110777736 -0.10531477
0.018367248 0.18726292 0.14961602 -0.066664755 0.0774699 0.017567625 -0.103098005 0.07827139
0.06388723 -0.16961092 -0.006767945 -0.058049202 0.06491924 0.12696177 0.010744811 -0.118629895
0.03455409 -0.047533453 0.12819812 0.1823471 -0.025071261 0.21304904 -0.14623438 -0.05437921
0.17042507 0.05882435 0.14518774 -0.065950505 -0.11895363 0.022489706 0.1324674 -0.09925935
0.11035952 0.0066987923 -0.19336037 0.13995025 -0.091924004 -0.22617932 -0.06633866 -0.015983962
0.004025886 0.21474768 0.038727846 0.081392065 -0.04072577 -0.017709 -0.09036518 -0.09575567
0.011076568 -0.0050956984 0.03363592 0.061844457 0.013988846 -0.04275867 0.18375345 0.09276333
-0.009274765 -0.016005563 0.060093895 0.15970495 0.12301324 -0.024351433 -0.015266967 -0.052856065
-0.025889864 0.13583934 0.114264734 -0.07263844 -0.055159464 0.106815256 -0.22697654 0.06320142
-0.0031294248 0.067506395 -0.06812385 0.07623602 -0.010255144 0.13256551 0.2217999 0.024739379
0.076598085 -0.073998876 0.053785864 0.08289131 0.121858805 -0.16711189 0.21464077 0.02503379
0.13557911 -0.08435556 0.2107012 -0.12513506 0.09760009 0.23889022 0.069869615 -0.049834177
00000000: c524 0fbe 9c68 f23c 475a 45be 4040 b8bd
00000010: 987b debd 9e0d 27bd 8ed6 82bd ef28 d13c
00000020: c88d 04bc ff63 7abd f8a5 11be 1586 82bc
00000030: bfbb 32be 217c 873d e9c1 dfbd 4d93 bbbb
00000040: 37c2 0ebe d972 dcbd aabc 873e 4729 24be
00000050: 3830 09bb 16cc 0fbe c8a3 a4bd ff37 5a3e
00000060: 415d 0bbe 0557 47bd b739 3a3c 73cd 8abd
00000070: 13b8 d8bd 0428 e0bd 70df e23d 45af d7bd
00000080: e976 963c dac1 3f3e f134 193e 8887 88bd
00000090: 8aa8 9e3d fbe9 8f3c 0c25 d3bd c04c a03d
000000a0: 4fd7 823d 7cae 2dbe a3c5 ddbb 00c5 6dbd
000000b0: 61f4 843d 4402 023e 010b 303c 3bf4 f2bd
000000c0: 9788 0d3d 70b2 42bd 5e46 033e 33b9 3a3e
000000d0: 3f62 cdbc 8729 5a3e 77be 15be bcbc 5ebd
000000e0: e983 2e3e cdf1 703d 18ac 143e 0f11 87bd
000000f0: f69d f3bd 553c b83c 89a5 073e 7c48 cbbd
00000100: 2c04 e23d 8b81 db3b 4300 46be 1e4f 0f3e
00000110: a742 bcbd 8d9b 67be 90dc 87bd ccf0 82bc
00000120: 94eb 833b d1e6 5b3e 17a1 1e3d e2b0 a63d
00000130: 11d0 26bd 7712 91bc 6111 b9bd 8c1b c4bd
00000140: 7e7a 353c d1f9 a6bb d2c5 093d 9d50 7d3d
00000150: 7931 653c b723 2fbd dd29 3c3e b3fa bd3d
00000160: 2ff5 17bc 191e 83bc 0425 763d b289 233e
00000170: 5eee fb3d a87c c7bc 4d22 7abc 9a7f 58bd
00000180: fb16 d4bc 7819 0b3e a103 ea3d 76c3 94bd
00000190: e4ee 61bd f5c1 da3d 8a6c 68be bf6f 813d
000001a0: 0917 4dbb cb40 8a3d 8484 8bbd a121 9c3d
000001b0: 3105 28bc 41bf 073e 831f 633e 3daa ca3c
000001c0: 75df 9c3d b98c 97bd 914e 5c3d ebc2 a93d
000001d0: 1c91 f93d 611f 2bbe caca 5b3e aa13 cd3c
000001e0: 40d5 0a3e 9cc2 acbd 0ec2 573e 6823 00be
000001f0: 8ee2 c73d a39f 743e cd17 8f3d ec1e 4cbd

dens3.weight f4 [64, 128]
-0.17028262 0.025448628 0.08485497 0.13942394 0.20020425 -0.26175034 0.022394873 -0.114978865
-0.042677913 0.14985351 -0.04986537 -0.0037350121 0.06685099 0.022719331 -0.011573065 -0.15715472
-0.13521932 -0.00034493426 -0.10282482 0.27216253 0.040990435 0.06609092 -0.23654988 -0.08836328
0.10914509 0.12751223 0.026929561 0.03310951 0.043882135 0.17389914 0.08191987 -0.17722258
-0.025637595 0.12708847 0.07724048 0.015498406 -0.011939501 -0.10650773 0.05640724 -0.0026531096
0.095832124 0.07958448 -0.09806217 0.1830167 0.1079203 -0.1640275 -0.007578976 -0.07292992
-0.18018527 0.05955768 0.008141857 0.028436972 0.19722605 0.07370438 -0.13793607 0.044891972
0.015241201 0.22387888 0.0601768 -0.048148114 0.035429128 -0.04325974 0.028529871 -0.12957017
0.19306579 -0.04230257 0.17776051 0.11485068 -0.07654022 0.09071099 0.008410062 -0.03142263
-0.24635497 -0.10878047 -0.36013746 0.033803836 -0.0879089 0.1212583 0.10224367 0.11547608
-0.12582493 0.15371932 -0.07837878 -0.0008223867 -0.0542695 -0.15198772 -0.020399224 0.011638564
-0.045312136 0.11401969 0.13586049 0.009257854 -0.0892936 0.10165278 -0.18940248 0.26508635
-0.063271366 -0.07013981 -0.23847537 0.06993914 0.074540704 -0.2075339 0.064297415 -0.08432341
0.20806466 0.09303992 0.06053906 0.052021828 -0.0050061313 0.09352564 -0.08107473 0.15937684
0.12608017 -0.020590236 -0.19427177 0.0034957442 -0.10350802 -0.06280507 0.059671883 0.054280087
-0.11630118 -0.18231647 -0.17388843 0.000641508 -0.1035571 -0.03813063 -0.042142816 -0.027993184
0.21871762 0.08887963 -0.1580342 0.043773327 -0.16282874 0.13306047 -0.2409504 -0.09409281
-0.118471645 -0.27957076 0.055794507 -0.028644336 -0.13241358 -0.14672019 -0.013571237 -0.04301792
-0.13417087 -0.10331585 -0.09657046 -0.17169897 -0.09611555 -0.08446937 0.22014983 -0.0032899352
-0.32513618 -0.19923851 -0.19278185 -0.2885964 0.08992594 -0.0830276 -0.059113532 -0.11021302
-0.19223337 -0.047191735 -0.0327836 0.26787764 -0.22246146 0.114429824 0.11929962 -0.19462854
-0.2696942 -0.045543276 0.18892016 -0.32387578 -0.059591874 0.0035495635 0.040320285 -0.17291611
0.022805022 -0.058169514 -0.10608364 -0.31381494 -0.044838913 0.14981672 -0.19693467 -0.3594814
-0.3047597 -0.28204113 -0.26886252 -0.0662553 -0.14363521 -0.3630809 -0.12539183 -0.077940606
-0.24158779 -0.17419612 -0.008595185 -0.17667383 -0.044641055 -0.082106866 -0.19879194 0.027843613
0.03453361 0.053372294 0.1823007 -0.024059776 0.12717693 0.23977134 0.12714337 -0.23436266
-0.36990467 -0.051325366 -0.08222281 0.098447435 0.023827618 0.11985346 -0.122763135 -0.1308601
-0.13177085 -0.16354294 0.12611817 -0.34229863 0.061985623 -0.38144702 -0.07593171 0.031775538
-0.15221716 -0.05962113 0.07620174 -0.048800904 0.03244646 0.033160806 -0.0382094 -0.018489586
0.07200395 -0.24730319 -0.15435183 -0.083708175 0.20710152 -0.0647747 -0.083127275 -0.021745354
-0.118682586 0.014796894 0.03011422 -0.20597109 0.1678026 -0.11496514 -0.086343214 -0.018330911
-0.10555084 0.1268734 0.1078137 -0.30624145 -0.16258979 -0.1559122 -0.23673865 0.051491145
00000000: 915e 2ebe a479 d03c 71c8 ad3d 26c5 0e3e
00000010: 5802 4d3e 2404 86be 7475 b73c 0a7a ebbd
00000020: 09cf 2ebd 3373 193e a13f 4cbd 1bc7 74bb
00000030: 2ce9 883d e41d ba3c f49c 3dbc 2bed 20be
00000040: ef76 0abe 4bd8 b4b9 d295 d2bd e358 8b3e
00000050: 96e5 273d ad5a 873d 223a 72be cff7 b4bd
00000060: 7687 df3d 9192 023e 629b dc3c d69d 073d
00000070: c1bd 333d 9e12 323e 9bc5 a73d d679 35be
00000080: ef05 d2bc 7b23 023e 4230 9e3d 07ed 7d3c
00000090: e69d 43bc ba20 dabd 470b 673d cbdf 2dbb
000000a0: a243 c43d 30fd a23d d2d4 c8bd bb68 3b3e
000000b0: 5105 dd3d d3f6 27be 0f59 f8bb 485c 95bd
000000c0: 7d82 38be c1f2 733d 6c65 053c a7f4 e83c
000000d0: a0f5 493e 52f2 963d 1d3f 0dbe a5e0 373d
000000e0: 3bb6 793c 8140 653e f37b 763d f536 45bd
000000f0: 221e 113d 2031 31bd 7ab7 e93c 0bae 04be
00000100: 0ab3 453e 7645 2dbd da06 363e d536 eb3d
00000110: 1ec1 9cbd afc6 b93d 5bca 093c 04b5 00bd
00000120: 7a44 7cbe 4cc8 debd f063 b8be e475 0a3d
00000130: 9509 b4bd 4656 f83d 2165 d13d b97e ec3d
00000140: 40d8 00be 9968 1d3e 0e85 a0bd 7095 57ba
00000150: b249 5ebd aba2 1bbe 461c a7bc adaf 3e3c
00000160: 3899 39bd 2883 e93d 031f 0b3e 41ae 173c
00000170: 90df b6bd 552f d03d b9f2 41be 66b9 873e
00000180: 6b94 81bd 76a5 8fbd e332 74be 403c 8f3d
00000190: cca8 983d c483 54be 5dae 833d c1b1 acbd
000001a0: e70e 553e b78b be3d cef7 773d d714 553d
000001b0: 790a a4bb 5f8a bf3d 820a a6bd af33 233e
000001c0: 291b 013e dbac a8bc 2eef 46be db18 653b
000001d0: 03fc d3bd f29f 80bd 816a 743d cc54 5e3d
000001e0: 502f eebd 2bb1 3abe cf0f 32be e02a 283a
000001f0: bf15 d4bd dd2e 1cbd f29d 2cbd f651 e5bc
00000200: 83f7 5f3e 8606 b63d b8d3 21be a94b 333d
00000210: 94bc 26be 0141 083e b4bb 76be bbb3 c0bd
00000220: 43a1 f2bd e623 8fbe c888 643d 87a7 eabc
00000230: 6d97 07be d13d 16be e559 5ebc 8f33 30bd
00000240: 1764 09be 4397 d3bd bcc6 c5bd dbd1 2fbe
00000250: 3bd8 c4bd 47fe acbd f56e 613e f49b 57bb
00000260: 4078 a6be 2e05 4cbe 9b68 45be e8c2 93be
00000270: 172b b83d 600a aabd 0821 72bd 5db7 e1bd
00000280: d3d8 44be 1f4c 41bd 1948 06bd 4227 893e
00000290: f0cc 63be 2f5a ea3d 5c53 f43d b44c 47be
000002a0: 5c15 8abe 968b 3abd 4974 413e 0cd3 a5be
000002b0: 9c16 74bd cb9f 683b e226 253d ec10 31be
000002c0: 99d1 ba3c 2843 6ebd 6142 d9bd 5aac a0be
000002d0: 02a9 37bd 8e69 193e 3ea9 49be f20d b8be
000002e0: 7709 9cbe b267 90be 59a8 89be dcb0 87bd
000002f0: 1c15 13be bde5 b9be b766 00be 539f 9fbd
00000300: ca62 77be 7860 32be d2d2 0cbc fce9 34be
00000310: 8ad9 36bd a527 a8bd 1d90 4bbe 4a18 e43c
00000320: 1d73 0d3d e89c 5a3d 09ad 3a3e 0219 c5bc
00000330: ab3a 023e 9e86 753e df31 023e c4fc 6fbe
00000340: 2564 bdbe 8c3a 52bd 6f64 a8bd cf9e c93d
00000350: 2332 c33c bb75 f53d 3d6b fbbd 3100 06be
00000360: f0ee 06be cd77 27be 1f25 013e c441 afbe
00000370: a3e4 7d3d 064d c3be 1682 9bbd 1127 023d
00000380: d1de 1bbe 4935 74bd a80f 9c3d 75e3 47bd
00000390: 94e6 043d a0d3 073d 7681 1cbd 7977 97bc
000003a0: cf76 933d 0c3d 7dbe 680e 1ebe 316f abbd
000003b0: 6c12 543e 99a8 84bd a23e aabd 5023 b2bc
000003c0: db0f f3bd ac6e 723c 19b2 f63c 16ea 52be
000003d0: 72d4 2b3e d872 ebbd b6d4 b0bd b52a 96bc
000003e0: 0a2b d8bd 1aeb 013e 6ecd dc3d aecb 9cbe
000003f0: f07d 26be 73a7 1fbe 9e6b 72be 61e8 523d

dens3.bias f4 [64]
-0.026091617 -0.18447274 0.031670995 0.077875294 0.17824142 0.24834992 0.17359665 -0.016473899
0.14746958 -0.014907335 -0.037785847 0.15463762 -0.03249072 -0.027839724 -0.04713538 -0.062609755
0.1762468 0.012561784 0.07925385 0.049441483 -0.021940665 0.196722 0.08866385 0.2328329
-0.017907927 0.24064212 -0.015910516 -0.117438406 0.13467988 0.20833391 0.06335496 -0.10719957
0.11453929 0.07238392 -0.12791912 0.0887972 -0.0015970687 -0.12560436 0.022330975 -0.044679996
-0.02989172 0.00020016963 -0.014350655 0.04042188 0.0044522258 0.17346771 -0.09995994 -0.044999346
0.16352427 0.02274421 0.045521468 -0.025849089 0.18355213 0.043340363 -0.103811465 0.26636568
0.031196298 -0.13400339 0.16465554 0.12270932 0.13289586 0.019254277 0.05897554 0.23755066
00000000: 16be d5bc 6ce6 3cbe 72b9 013d 157d 9f3d
00000010: eb84 363e 714f 7e3e 52c3 313e 45f4 86bc
00000020: 4402 173e e53d 74bc 55c5 1abd 5359 1e3e
00000030: fd14 05bd 2210 e4bc 0711 41bd 8b39 80bd
00000040: 0b7a 343e f1cf 4d3c d84f a23d 2783 4a3d
00000050: e9bc b3bc 7e71 493e 6595 b53d bf6b 6e3e
00000060: a5b3 92bc e36a 763e c556 82bc 8c83 f0bd
00000070: 86e9 093e 7c55 553e 3fc0 813d 738b dbbd
00000080: 9393 ea3d 053e 943d 3bfd 02be 4edb b53d
00000090: bc54 d1ba 6e9e 00be 73ef b63c 5f02 37bd
000000a0: 7bdf f4bc a0e4 5139 021f 6bbc 6a91 253d
000000b0: fae3 913b 85a1 313e ccb7 ccbd 3c51 38bd
000000c0: e872 273e 1152 ba3c b874 3a3d 78c1 d3bc
000000d0: 17f5 3b3e aa85 313d 1b9b d4bd 1561 883e
000000e0: 618f ff3c 2f38 09be 769b 283e 064f fb3d
000000f0: da15 083e 25bb 9d3c 5690 713d 7b40 733e

dens4.weight f4 [20, 64]
0.10267586 -0.19190203 -0.13317844 0.13828059 -0.2715468 -0.2550844 -0.033592317 0.06956344
-0.01367771 0.122231595 -0.22811306 -0.3102566 0.07225253 -0.24438056 0.0063105463 -0.14195313
0.116125576 0.19415855 -0.02084503 0.003184648 -0.014835947 -0.29683077 0.17359069 0.12431071
-0.06399377 0.07991068 -0.12677515 0.08581281 -0.10624499 -0.30440745 0.16154578 0.020668354
-0.25335503 -0.22424063 -0.026088877 -0.08600088 0.22267447 0.17535001 0.03334288 0.08910679
0.052213177 -0.06330473 -0.10229608 0.05615879 -0.27607512 0.05671582 -0.23836319 0.2442918
0.027063113 0.29915565 0.0775997 0.04299149 0.087922804 0.09431642 -0.19779135 -0.024351157
0.015488722 -0.25612098 -0.10719089 -0.20004486 -0.2960782 0.14866145 -0.06587624 -0.027437901
-0.26102456 0.010651271 0.036569085 -0.12334455 0.1326153 0.13795388 -0.04252206 -0.37349755
0.10944611 0.03588683 0.21330854 -0.004527372 -0.12387719 0.08760329 0.090988755 -0.12192396
-0.34612727 -0.30806655 0.12985907 -0.040995546 0.055134904 0.12184166 0.024731461 -0.05752529
-0.07541122 0.11463275 0.085411586 -0.26133755 0.1925943 0.106959894 -0.28959626 -0.04379142
0.10520473 -0.16046116 0.015621219 -0.090892024 -0.33477417 0.15405473 0.15297738 -0.18832707
0.21683909 0.29879436 0.012835566 -0.15618259 -0.13386561 -0.053171746 0.3817854 -0.27695343
-0.08143395 -0.2052689 0.11042371 -0.06589707 0.050489563 -0.033534482 -0.26262334 -0.0015828914
0.16249754 -0.11944476 -0.20475803 0.12229945 0.24647611 0.041354824 0.113664426 0.17849551
-0.050208293 0.27174053 -0.17483185 -0.06450432 0.010815263 0.056058895 0.023486417 0.0030192318
0.014595955 -0.3013309 0.19150741 0.08542485 -0.241091 0.15762195 -0.08975657 0.19197367
0.1026613 -0.09779116 0.25039282 0.12904699 -0.07767079 -0.07689115 -0.12947105 0.0902845
-0.23971392 0.040623598 0.17884897 -0.0042593116 0.1407402 0.10461566 -0.09422265 0.09392638
0.08273859 0.32679442 -0.11024184 0.005246083 -0.36990905 -0.09826398 0.072337836 -0.16033246
0.014524986 -0.05654539 -0.2778453 0.13130072 0.07493463 0.13877249 0.2876371 -0.18797034
-0.035751082 -0.22398625 -0.069789425 -0.085727744 -0.039329004 -0.087414026 -0.20107421 0.14739744
0.21378772 0.20404042 -0.0040971674 0.04642478 0.049758196 0.046056457 0.05295597 0.05882923
-0.07317839 0.24810705 -0.15651223 -0.041174516 0.11112029 0.09853264 0.11866116 -0.054150686
0.012192778 -0.25957897 0.08155113 0.16438909 -0.19380118 0.17283058 -0.07541916 0.24148478
-0.044735294 0.008550852 0.2878369 0.033394538 -0.122247465 0.05397793 -0.15613621 0.079477966
-0.23852052 -0.14630008 0.26755828 -0.045732077 0.04363824 0.043403618 0.00857553 0.0049416176
0.0566632 0.32173198 -0.15935266 -0.008410008 -0.38648358 -0.045777652 0.18092811 -0.17757697
0.011269419 0.009750654 -0.34802786 0.109764874 -0.040433694 0.08634555 0.2075732 -0.20416604
0.018485505 -0.27920252 -0.11052435 -0.029518507 -0.082879916 -0.041931096 -0.3314737 0.018983748
0.12511346 0.21716864 0.016617816 0.0022197007 0.15146999 0.09708828 0.07454938 -0.027680317
00000000: b947 d23d f781 44be ee5f 08be 6d99 0d3e
00000010: 2f08 8bbe 6c9a 82be 1998 09bd 4777 8e3d
00000020: 7918 60bc 8f54 fa3d 7896 69be f4d9 9ebe
00000030: 22f9 933d e63e 7abe b3c8 ce3b 295c 11be
00000040: 3fd3 ed3d 80d1 463e 32c3 aabc 87b5 503b
00000050: 7912 73bc 34fa 97be c2c1 313e 9d96 fe3d
00000060: 2a0f 83bd 36a8 a33d 58d1 01be a0be af3d
00000070: f996 d9bd 4bdb 9bbe 426c 253e ae50 a93c
00000080: c0b7 81be 569f 65be 57b8 d5bc 3b21 b0bd
00000090: c704 643e f48e 333e 8b92 083d 9f7d b63d
000000a0: 7cdd 553d e9a5 81bd 9b80 d1bd c206 663d
000000b0: b859 8dbe d94e 683d 7b15 74be a127 7a3e
000000c0: 76b3 dd3c ee2a 993e 97ec 9e3d d817 303d
000000d0: df10 b43d f828 c13d d189 4abe 147c c7bc
000000e0: 69c4 7d3c 4a22 83be e686 dbbd 8fd8 4cbe
000000f0: 9097 97be b53a 183e 1fea 86bd 73c5 e0bc
00000100: 03a5 85be ab82 2e3c 77c9 153d 119c fcbd
00000110: 4ecc 073e c843 0d3e 9d2b 2ebd 123b bfbe
00000120: 4825 e03d 12fe 123d 8e6d 5a3e 595a 94bb
00000130: 53b3 fdbd 5b69 b33d 5058 ba3d 45b3 f9bd
00000140: 9837 b1be e6ba 9dbe c7f9 043e f2ea 27bd
00000150: 23d5 613d 1f88 f93d a299 ca3c a39f 6bbd
00000160: 3371 9abd 93c4 ea3d 45ec ae3d 09ce 85be
00000170: 7137 453e ca0d db3d f645 94be a25e 33bd
00000180: 9475 d73d ee4f 24be 24f0 7f3c 9925 babd
00000190: 8567 abbe 86c0 1d3e 1aa6 1c3e d0d8 40be
000001a0: 110b 5e3e 93fb 983e 444c 523c 54ee 1fbe
000001b0: 1114 09be 9eca 59bd 6079 c33e d7cc 8dbe
000001c0: d8c6 a6bd 0332 52be d325 e23d 0bf5 86bd
000001d0: 25ce 4e3d 745b 09bd 9176 86be 0679 cfba
000001e0: c165 263e 749f f4bd 17ac 51be 2278 fa3d
000001f0: 3c64 7c3e ad63 293d e5c8 e83d 87c7 363e
00000200: 36a7 4dbd 9321 8b3e 1f07 33be d71a 84bd
00000210: 8032 313c 039e 653d 9666 c03c 4ede 453b
00000220: df23 6f3c 0b48 9abe 851a 443e 39f3 ae3d
00000230: 8fe0 76be a667 213e 4bd2 b7bd bf94 443e
00000240: 1640 d23d bb46 c8bd 7d33 803e e524 043e
00000250: dd11 9fbd 1b79 9dbd 0f94 04be 14e7 b83d
00000260: 9177 75be ee64 263d 2f24 373e b291 8bbb
00000270: 331e 103e bc40 d63d cef7 c0bd 795c c03d
00000280: da72 a93d 9951 a73e 79c6 e1bd 55e7 ab3b
00000290: b864 bdbe a03e c9bd dc25 943d 312e 24be
000002a0: 35fa 6d3c 249c 67bd bd41 8ebe b273 063e
000002b0: 5477 993d 601a 0e3e 2c45 933e 4c7b 40be
000002c0: ba6f 12bd a75c 65be c2ed 8ebd 0792 afbd
000002d0: 7317 21bd 2006 b3bd 66e6 4dbe 5bef 163e
000002e0: 2beb 5a3e f9ef 503e 8841 86bb e927 3e3d
000002f0: 40cf 4b3d b2a5 3c3d 5ce8 583d ebf6 703d
00000300: 8dde 95bd c60f 7e3e be44 20be 9ca6 28bd
00000310: 0993 e33d 7bcb c93d 9f04 f33d 1ccd 5dbd
00000320: 38c4 473c 89e7 84be 4704 a73d 9d55 283e
00000330: d173 46be 80fa 303e 5c75 9abd c947 773e
00000340: 5b3c 37bd df18 0c3c 5c5f 933e b6c8 083d
00000350: e15c fabd f617 5d3d 2ce2 1fbe 58c5 a23d
00000360: b93e 74be b0cf 15be 66fd 883e 8f51 3bbd
00000370: 03be 323d fec7 313d 6180 0c3c 4bed a13b
00000380: ac17 683d 0eba a43e 582d 23be 21ca 09bc
00000390: 2de1 c5be 5981 3bbd 3845 393e bdd6 35be
000003a0: 5fa3 383c 35c1 1f3c b530 b2be 68cc e03d
000003b0: cd9d 25bd f0d5 b03d 128e 543e e710 51be
000003c0: ea6e 973c a2f3 8ebe 975a e2bd ccd0 f1bc
000003d0: f2bc a9bd f1bf 2bbd ecb6 a9be ce83 9b3c
000003e0: be1d 003e 7561 5e3e 1622 883c 6678 113b
000003f0: f31a 1b3e 38d6 c63d 58ad 983d d5c1 e2bc

dens4.bias f4 [20]
0.117986254 0.24498236 0.19933388 0.12506007 -0.0025351613 0.0117695825 0.07204991 0.3280153
0.029640438 0.023757903 0.010487774 0.077485226 0.0951355 0.32947433 0.16251239 0.24622294
0.19046302 0.18396805 0.052238964 0.032282982
00000000: c7a2 f13d a8dc 7a3e 2e1e 4c3e bf0f 003e
00000010: f324 26bb 35d5 403c e78e 933d 9ff1 a73e
00000020: 81d0 f23c ef9f c23c ead4 2b3c 93b0 9e3d
00000030: 67d6 c23d dcb0 a83e a669 263e de21 7c3e
00000040: bd08 433e 1f62 3c3e 86f8 553d 293b 043d

dens5.weight f4 [10, 20]
-0.42021957 0.3039504 0.22090015 0.24184437 -0.42795324 -0.46986097 0.1265835 -0.32733247
-0.21441711 -0.28634328 0.2600469 -0.31342575 0.21588467 -0.6020958 -0.46438313 -0.39027467
-0.17229085 -0.4827518 -0.21215838 0.23430419 0.17468588 0.08815129 -0.32733756 -0.33597633
-0.183766 0.14949393 -0.21522556 -0.20096572 -0.19821401 0.15659358 0.20952263 0.19247954
-0.14140615 0.1163161 0.14058791 -0.31925726 0.23148446 0.0549335 -0.31856772 -0.33186966
-0.19729254 0.2215777 -0.11375561 -0.20901807 -0.25413382 0.12825523 0.15641607 -0.2488067
0.21586327 -0.30377844 -0.27815586 0.1779032 0.18509363 -0.39087385 0.14330506 0.03779071
0.24617611 -0.33136886 0.20473222 -0.088366464 -0.12369735 -0.08140392 -0.30739802 -0.2639119
0.18462363 0.17509653 0.16057886 0.20017481 -0.13220677 -0.1822059 -0.17631501 -0.12267152
0.1834293 -0.28123745 -0.18760559 0.25442943 0.2510169 0.13351677 -0.32732135 0.17105678
-0.054997697 -0.17422625 0.17552233 0.17478786 0.19438046 -0.46710157 0.12084748 0.022508716
0.24406461 -0.18346974 -0.45784944 -0.22811909 -0.20264108 0.1794172 -0.29538673 0.22860421
-0.21676329 -0.55204076 0.274536 -0.2725755 -0.28379816 -0.028232561 0.19478233 0.19721432
0.17396607 0.14304647 -0.487487 0.18938027 -0.13543965 0.18973085 0.1747646 -0.16670966
-0.14737691 -0.093227744 -0.32822132 0.08731567 -0.26402915 0.112339705 -0.16829316 0.21486104
-0.5388998 0.2234822 0.22657022 0.23849674 -0.42636395 -0.4141461 -0.3714195 -0.40855065
0.23598577 0.18987012 0.16592763 0.13741246 -0.3154893 0.025796825 0.05218906 -0.4390368
-0.27854776 -0.17180951 0.20398122 0.14613372 0.21123959 -0.31144625 -0.44600785 -0.439702
0.2181051 -0.17963937 0.16140606 -0.2841452 -0.0998938 -0.4217494 0.1787572 -0.23835959
0.15063474 0.1098039 0.15284625 -0.3900415 0.17174922 -0.43899846 0.19526942 0.16922574
-0.17821206 0.23998731 0.1054674 0.101146676 -0.3107742 -0.24335007 0.10447748 0.21026066
-0.29836583 -0.18496405 0.14287746 0.20321164 0.057688545 0.07547616 -0.19475543 0.19578147
0.18819897 0.08799158 -0.3067027 -0.18814157 0.20641236 -0.15178664 -0.040768567 -0.15719408
0.23687035 0.08180669 -0.08067297 0.24557897 -0.20634706 -0.40091738 -0.20793653 -0.20394485
-0.26928383 0.16976354 0.103327155 0.22077014 -0.22796792 0.045886032 0.21306477 -0.089935124
00000000: 0527 d7be 639f 9b3e a633 623e 0da6 773e
00000010: b01c dbbe 9e91 f0be 1b9f 013e 1f98 a7be
00000020: 2990 5bbe 969b 92be de24 853e 5779 a0be
00000030: df10 5d3e f322 1abf a0c3 edbe 15d2 c7be
00000040: 036d 30be 3e2b f7be 0c40 59be 70ed 6f3e
00000050: dbe0 323e aa88 b43d ca98 a7be 1705 acbe
00000060: 282d 3cbe f014 193e 1764 5cbe f5c9 4dbe
00000070: 9df8 4abe 115a 203e 1a8d 563e 5b19 453e
00000080: c6cc 10be 2337 ee3d 47f6 0f3e b075 a3be
00000090: 430a 6d3e f301 613d 4f1b a3be d2ea a9be
000000a0: 0e07 4abe 44e5 623e b4f8 e8bd d508 56be
000000b0: d41d 82be 5755 033e 892b 203e 2fc7 7ebe
000000c0: 430b 5d3e d988 9bbe 726a 8ebe 422c 363e
000000d0: 2f89 3d3e 9e20 c8be 90be 123e 6eca 1a3d
000000e0: 9715 7c3e 2ea9 a9be 53a5 513e 7af9 b4bd
000000f0: 0955 fdbd 19b7 a6bd 4663 9dbe 761f 87be
00000100: fa0d 3d3e 814c 333e c96e 243e a0fa 4c3e
00000110: 3661 07be 2f94 3abe ec8b 34be 353b fbbd
00000120: e4d4 3b3e 5bfe 8fbe ae1b 40be 9344 823e
00000130: 4a85 803e 9fb8 083e aa96 a7be 8229 2f3e
00000140: 4445 61bd 5e68 32be 20bc 333e 97fb 323e
00000150: ac0b 473e f027 efbe e27e f73d 3364 b83c
00000160: 13ec 793e 7edf 3bbe 3e6b eabe 0d98 69be
00000170: 2581 4fbe 24b9 373e ee3c 97be 3917 6a3e
00000180: 32f7 5dbe 8b52 0dbf fc8f 8c3e 048f 8bbe
00000190: fe4d 91be f947 e7bc 0575 473e 8df2 493e
000001a0: 2924 323e c67a 123e e597 f9be e7ec 413e
000001b0: b1b0 0abe ce48 423e 7ef5 323e f0b5 2abe
000001c0: f9e9 16be 30ee bebd a00c a8be 8fd2 b23d
000001d0: d42e 87be 5c12 e63d 0b55 2cbe 8804 5c3e
000001e0: 56f5 09bf 85d8 643e 0602 683e 7d38 743e
000001f0: 604c dabe f50a d4be b22a bebe 8d2d d1be
00000200: 41a6 713e 506d 423e efe8 293e dab5 0c3e
00000210: d087 a1be dd53 d33c 32c4 553d 6ec9 e0be
00000220: d09d 8ebe d5ee 2fbe 74e0 503e 14a4 153e
00000230: 314f 583e e275 9fbe 245b e4be 9f20 e1be
00000240: f156 5f3e 62f3 37be a147 253e 7b7b 91be
00000250: 1f95 ccbd 8aef d7be 210c 373e 8914 74be
00000260: fe3f 1a3e dee0 e03d ba83 1c3e 85b3 c7be
00000270: 07df 2f3e 68c4 e0be b5f4 473e 8349 2d3e
00000280: 397d 36be 3cbf 753e 4bff d73d fd25 cf3d
00000290: cc1d 9fbe c330 79be 4af8 d53d 924e 573e
000002a0: 68c3 98be 3767 3dbe 784e 123e b616 503e
000002b0: d34a 6c3d 3f93 9a3d f86d 47be f07a 483e
000002c0: 3bb7 403e ee34 b43d 2308 9dbe 2fa8 40be
000002d0: c35d 533e f56d 1bbe f1fc 26bd 7cf7 20be
000002e0: 248e 723e 448a a73d df37 a5bd 0e79 7b3e
000002f0: a54c 53be 0b45 cdbe 50ed 54be ebd6 50be
00000300: 92df 89be 7ed6 2d3e 309d d33d 9111 623e
00000310: 6c70 69be fef2 3b3d a72d 5a3e e82f b8bd

dens5.bias f4 [10]
0.3539335 -0.1941773 -0.041698966 -0.22910854 0.2309121 -0.11649567 -0.27254522 0.15940355
0.02977847 0.23401691
00000000: c636 b53e 6ad6 46be 89cc 2abd 6e9b 6abe
00000010: 3974 6c3e 4895 eebd 0c8b 8bbe af3a 233e
00000020: faf1 f33c 21a2 6f3e
